models/mrresnet.pth (torch_old, 225604 bytes, 40 tensors)

head.0.weight f4 [32, 2, 3]
000000 dc 5e dc be f7 c3 83 3c 4d ed fe be 1a 56 c6 3e
       -0.43041122 0.016084654 -0.4979042 0.38737565
000010 85 02 37 3f 07 47 1e 3f c8 2a 8c 3e 4e 23 63 be
       0.7148822 0.6182713 0.2737639 -0.22181436
000020 3e 12 a9 be 30 2a 01 be 04 ad aa 3e e4 b9 46 3e
       -0.3302173 -0.1261375 0.33335125 0.19406849
000030 e8 cd e4 bd 90 42 1b 3e a8 f5 a9 3e c4 c5 ce 3e
       -0.11172086 0.1516211 0.33195233 0.40385258
000040 ea 67 9e 3e 60 4e bb 3e 73 13 06 bf 49 9d cc be
       0.30938655 0.36583233 -0.5237343 -0.3996375
000050 a5 a2 b3 be 10 82 86 3f 60 b1 7e 3f b6 98 86 3f
       -0.35085025 1.0508442 0.994894 1.0515354
000060 78 a5 f6 3d 42 15 b5 be 28 af 5f 3d fa 90 85 3e
       0.120432794 -0.3536778 0.0546104 0.2608717
000070 30 4a e3 3d 20 24 bf 3d 9b 5b c5 3e 72 7c a7 3e
       0.110981345 0.09333062 0.38546452 0.32712132
000080 a8 13 b8 3e b0 18 55 bf dc bf 3d bf 5a 4f 79 bf
       0.35952497 -0.83240795 -0.7412088 -0.97386706
000090 ec 90 a2 be 0e 73 c2 3e b5 cd a6 be 16 f7 a5 3e
       -0.31751192 0.37978405 -0.32578817 0.32415074
0000a0 ff 8d aa be 04 a8 a8 3d 61 d2 f1 be 9c 92 6a bd
       -0.3331146 0.082351714 -0.4723082 -0.057268724
0000b0 f4 6e 84 be 24 95 87 3e 68 13 29 3f c5 ac 9f 3e
       -0.258659 0.26480973 0.66045237 0.311865
0000c0 ec e7 d0 3e 00 51 8d 3c 0a a9 6d be 90 6d 44 3d
       0.40801942 0.017250538 -0.23209015 0.04795605
0000d0 ac df 92 3e 21 f7 87 be 19 5e b2 3e fc 44 8b be
       0.28686273 -0.26555732 0.34837416 -0.27201068
0000e0 62 32 54 be 5e dc 04 bf 05 1f 7d bf 91 b9 34 bf
       -0.20722345 -0.51898754 -0.9887546 -0.7059565
0000f0 95 8a 63 3d c5 4d ae bd cb d4 68 3e 28 ad 09 bf
       0.055552084 -0.08510927 0.22737424 -0.5377984
000100 50 a1 38 bf 34 00 43 bf 30 0d 3e bd 56 5e 8b 3e
       -0.72121143 -0.76172185 -0.046399295 0.2722041
000110 d0 15 25 be 28 f2 1e bd be ce 8d 3e e6 6b 83 be
       -0.16121602 -0.038805157 0.27696794 -0.25668257
000120 b6 90 65 3e e0 63 25 3c e7 e2 c3 3e c1 6d 01 bd
       0.22418484 0.010094613 0.3825905 -0.03159881
000130 23 e5 9b 3e 5c 8a cf 3e 14 ab 93 3d c0 82 24 bc
       0.30448255 0.40535247 0.07210365 -0.010040939
000140 68 d6 fc 3d 90 90 f4 3d a5 90 a1 be 20 2b 5d 3c
       0.12345582 0.119416356 -0.31555668 0.013499051
000150 d8 d5 44 3e 10 1f a9 bc ac 0f e2 bd aa c2 13 be
       0.192222 -0.020644695 -0.110381454 -0.14429727
000160 84 c4 e8 bd 0c e6 a3 3d 80 97 e4 3d 8e 73 66 be
       -0.113656074 0.08002862 0.11161709 -0.22505018
000170 03 27 52 be 84 27 60 3e 1f 0c c4 be 40 3f 28 bc
       -0.20522694 0.21890074 -0.38290498 -0.010268986
000180 30 1e ab 3d d8 d3 6f 3e 20 a9 e2 bc 00 84 48 ba
       0.08355367 0.23420656 -0.027668536 -0.0007649064
000190 44 28 b4 bd c8 9a 4d 3e 77 18 fd bc f5 9f 09 be
       -0.087967426 0.20078576 -0.030895455 -0.13439925
0001a0 6b 86 87 bd f6 b6 48 be ac dc c6 be f3 10 36 bf
       -0.06617435 -0.19601044 -0.38840234 -0.7111961
0001b0 21 c7 e3 be 06 1b 89 3e eb 61 43 be b7 cd 66 3f
       -0.4448786 0.2677843 -0.19080321 0.90157646
0001c0 47 c1 3b 3f 18 a3 12 3f 7b 53 29 3d 12 a0 c1 bd
       0.7334179 0.5728011 0.04133938 -0.09454359
0001d0 00 17 4a bd a8 e7 b9 be b6 20 e7 bd cb 34 97 3e
       -0.04933834 -0.36309552 -0.11285536 0.29532465
0001e0 cf f5 75 be 9c 89 b4 3e a4 d2 d9 bd e8 3f 7f 3e
       -0.2401955 0.35261238 -0.1063588 0.24926722
0001f0 80 d8 60 3d 00 57 06 3e b8 3f 81 be 91 b4 8b be
       0.05489397 0.13119125 -0.25243926 -0.272862
000200 d0 bf 7f bd 40 35 04 3d 42 24 bf 3e 82 d5 88 be
       -0.062438786 0.032277346 0.3733235 -0.26725394
000210 55 15 e4 3e f8 9d 58 3d db 37 b6 3e 71 e1 5c bf
       0.44547525 0.052885026 0.3558949 -0.86281496
000220 ff 27 0e bf bc e3 59 bf 6f 01 5e 3e ca 21 58 be
       -0.5552978 -0.8511312 0.21680234 -0.2110664
000230 3c 0d 91 3c 26 b5 6d 3f 68 98 6e 3f f6 27 03 3f
       0.017706506 0.92854536 0.93201303 0.5123285
000240 ba 20 01 3e 5d c8 94 3d d7 fe 55 3e e5 d4 cf 3e
       0.1261014 0.07264779 0.20897995 0.40592113
000250 35 b7 0d 3f 81 0f b0 3e 44 88 81 be a0 e4 58 3c
       0.55357677 0.3438683 -0.25299275 0.013238102
000260 d0 0b 82 bc f7 81 b6 be 23 38 71 be e3 f1 be be
       -0.015874773 -0.3564603 -0.2355657 -0.3729392
000270 63 12 24 be e4 47 9c bc 8d 69 65 bd 3c cd 7e 3d
       -0.16022639 -0.019077249 -0.056008864 0.062207446
000280 64 6b 03 bc 26 07 9d 3d b9 cb 30 be 6d c2 c5 be
       -0.008021209 0.07667379 -0.17265214 -0.38624898
000290 ee 6e a3 be d0 d0 10 be 70 cc b1 bc d0 59 37 3e
       -0.3192057 -0.14142156 -0.021703929 0.17905354
0002a0 44 53 41 be 90 45 1c 3e 13 56 4a be fe 26 b2 be
       -0.1887942 0.15260911 -0.19759397 -0.34795374
0002b0 a6 0a a5 3e 94 e5 52 3e e4 f9 9c be 58 18 ca 3d
       0.32234687 0.2059539 -0.306594 0.098679245
0002c0 02 01 c8 be f2 95 9c 3e c8 bc b2 3e 0e 24 90 be
       -0.3906327 0.3058315 0.34909654 -0.28152508
0002d0 58 0b 01 3d c4 ce a2 3e d2 6f c3 be e0 f8 75 3c
       0.03150496 0.31798375 -0.3817125 0.01501295
0002e0 9f 3f ca be 34 35 2b 3e 48 eb 36 3e 1c e8 89 be
       -0.39501664 0.16719514 0.1786319 -0.26934898
0002f0 d0 e2 4e 3d 6a 33 c9 3e 8c d7 02 3e 80 72 a9 bb
       0.050509274 0.39297038 0.12777537 -0.00517112

head.0.bias f4 [32]
000000 ab 3f db 3c 11 ab 9e be f2 26 9c be 1e 3e d9 3d
       0.026763758 -0.30989888 -0.30498463 0.10607551
000010 34 1d ab be 0d 6e f3 3d cb 20 cb bd 2e 70 07 3e
       -0.33420718 0.11886225 -0.09918364 0.13226387
000020 6a a9 c3 be 3c 9f 33 3e 20 3d 9a 3e 78 f9 27 be
       -0.3821519 0.17541212 0.3012476 -0.16403759
000030 4a 2e ae 3e 2f 97 42 be 07 75 60 be 12 a8 0a be
       0.3401969 -0.19002984 -0.21919642 -0.13540676
000040 c0 19 ce be 19 5e db 3d 09 18 fa 3c b5 52 85 3b
       -0.4025402 0.10711307 0.030529039 0.0040686973
000050 bc 51 33 be 8f 0a 66 be 12 9a 85 3e 0a 0e 95 3e
       -0.17511648 -0.22464965 0.2609411 0.29112273
000060 ff 9f 68 3b 73 c6 ba be 8e f6 95 bd 36 6b a6 be
       0.0035495756 -0.3647953 -0.07322417 -0.3250367
000070 15 20 aa be c5 e7 a0 be e3 e0 a2 be dd f4 83 be
       -0.33227602 -0.31426826 -0.318122 -0.25772753

res_blocks.0.model.0.weight f4 [32, 32, 3]
000000 bd a6 b8 bd 94 91 a0 3d 57 a4 b4 bd 4c 44 bd 3d
       -0.09016178 0.07840267 -0.08820408 0.09241542
000010 68 b1 3b 3d a0 fe a0 bb 8c a2 e6 bc bc 69 be bc
       0.045823485 -0.004913166 -0.02815368 -0.023243777
000020 15 64 38 bd 1f ee 3e bd 7f 9d 8c bd 0e 3a 3d 3d
       -0.04501732 -0.04661381 -0.068659775 0.046197943
000030 84 8e cd bc 34 a1 18 3d 88 2c 84 3d 85 45 16 bd
       -0.02509237 0.03726311 0.06453806 -0.036687393
000040 9c fa 0c 3d 8e 31 2b 3d ef 96 b3 bc 4e b6 ba 3d
       0.034418687 0.041795306 -0.021922557 0.09116803
000050 bd d6 42 3d 66 35 50 bd e7 38 e5 3c 4d 39 08 bd
       0.04756807 -0.050832175 0.027981235 -0.03325777
000060 30 97 94 3d 11 f7 24 bd c0 d8 3e bb ed 04 9d 3c
       0.07255399 -0.040274683 -0.0029120892 0.019167388
000070 75 fc 9d 3d 17 f6 e3 bd 37 6a 3f 3d 89 f3 d2 bd
       0.07714168 -0.11130922 0.046732154 -0.10300357
000080 8d b4 ab 3b c8 46 c7 3c 00 32 20 b9 e8 90 a2 3d
       0.005240029 0.024325743 -0.00015277416 0.07937795
000090 f4 e0 5e 3d 1e a0 82 bd 00 09 cf bd c5 ce b9 bd
       0.05441375 -0.06378196 -0.101091385 -0.09072641
0000a0 44 26 1e 3d 58 16 9a bd 54 cb 91 bd 9a 33 89 3d
       0.03861071 -0.07523793 -0.0711886 0.06699295
0000b0 0d 3a 88 bd 50 ec 86 bd ac 3a bf 3d 43 7c ba bd
       -0.06651697 -0.06588042 0.09337363 -0.09105732
0000c0 28 09 25 bd 27 7b 2d bd a0 be 69 3d a9 ff df bd
       -0.040291935 -0.042353775 0.05706656 -0.10937435
0000d0 65 e5 41 bd 21 16 cb 3c cb 8b 8c 3d a1 09 a3 bc
       -0.04733791 0.024790825 0.06862601 -0.019902052
0000e0 16 62 59 3d ea a5 99 bd 8a 7a 92 bc 55 f2 19 be
       0.053072058 -0.07502349 -0.017880697 -0.15033849
0000f0 0a 0a 86 bd 94 2a e0 bc 19 4e 9f bd 4e 23 ae 3d
       -0.065448835 -0.027364053 -0.07778568 0.085028276
000100 4e 41 9b 3d 98 be 87 bd 95 e8 69 3d ea 2d bb bd
       0.07580815 -0.0662815 0.057106573 -0.09139617
000110 a1 45 d4 bc a6 f8 6f bd 27 26 1b 3d 3a b7 9c 3d
       -0.025912108 -0.05858674 0.03787818 0.07652135
000120 7f 2b 91 3e 21 de 7c 3d 79 e6 80 bc 40 b5 d2 3c
       0.28353497 0.061735276 -0.015734898 0.025721192
000130 36 f5 91 bd 24 dd c3 3d 6e e9 cb 3d a7 99 de 3d
       -0.071268484 0.095636636 0.099566326 0.108691506
000140 ae 3f 88 bd 50 b0 3f bc 5d 0f 2c bd 38 1e 38 3c
       -0.06652771 -0.011699751 -0.04200684 0.011237673
000150 8c 1d c7 3d f0 c1 a5 3c 3c 2b 62 3d f4 2e a9 bd
       0.097224325 0.020234078 0.055217013 -0.08260909
000160 a4 bf 1e bd d0 6b 60 3c 87 5e 79 bd f8 c2 04 bd
       -0.03875698 0.0136975795 -0.060881164 -0.0324125
000170 0c 89 7a 3d 60 ec b4 3b ac 39 97 bd 48 66 bd bd
       0.061165854 0.005521342 -0.07384047 -0.09248024
000180 bc a7 9f bd 7a 21 b9 bd 3f 6e 56 be 2c d6 5d 3d
       -0.07795665 -0.09039588 -0.20940493 0.05415933
000190 b0 de b2 3d 14 b8 6f bd f0 e2 99 3c a2 c6 c2 3d
       0.087338805 -0.05852516 0.01878497 0.095105425
0001a0 d4 87 7e 3d 21 54 28 be d3 d5 25 be 05 20 15 be
       0.062141255 -0.16438343 -0.16194849 -0.14562996
0001b0 f2 0e bf bd 10 0f 80 bb a8 9f 1f 3d d0 63 57 bd
       -0.093290225 -0.0039080456 0.03897062 -0.052585423
0001c0 11 43 c6 3c f5 d9 ee 3d df fb 91 3c 00 bc 5f bc
       0.024201902 0.11662666 0.017820297 -0.013655663
0001d0 5f 4a 5e bd 4c b7 33 3d be 16 9d bd f9 49 b0 bd
       -0.054270145 0.043875977 -0.07670353 -0.08607859
0001e0 4e 24 d0 3d b7 20 51 bd 10 da 17 3c 20 18 81 bc
       0.101631746 -0.05105659 0.009268299 -0.015758574
0001f0 83 9b 72 3d de c9 cd 3d c7 9e be 3d 91 80 7b bd
       0.05923034 0.10048269 0.09307628 -0.061401907
000200 45 d5 02 3d b1 41 9f bd c8 eb c1 3d e8 90 f3 bc
       0.03194167 -0.077762015 0.094688 -0.029732183
000210 fc 60 ac 3d 80 b6 d8 3c 3f d1 0e 3b be 64 99 bd
       0.08416936 0.02645421 0.00217922 -0.07489918
000220 60 90 58 bd 24 2d 0d bd f2 7b b0 3d 2f db 22 bd
       -0.05287206 -0.034466878 0.08617391 -0.03975981
000230 a8 6f 6b 3d 92 bd af bd ea d0 b6 bd a0 01 11 bc
       0.05747953 -0.085810795 -0.08926566 -0.008850485
000240 38 c4 47 bd 38 8b 58 3c 87 87 cd bd 66 3a 27 bc
       -0.048771113 0.013216786 -0.100356154 -0.010206794
000250 8e 29 8f bd 88 f8 a8 3c ce e5 54 be d5 d7 4b be
       -0.06990348 0.020626321 -0.20790789 -0.19906552
000260 85 79 87 be 00 63 50 3d bc 02 f8 bc ee 58 c7 3c
       -0.264599 0.050875664 -0.030274741 0.024334397
000270 c4 86 8d 3d 60 dd e3 bc a4 76 01 bd 64 c3 29 3d
       0.0691047 -0.02781552 -0.031607285 0.041446105
000280 29 45 37 bd a8 db 83 3c 28 9b b7 3d e7 03 cc 3d
       -0.04474369 0.016095951 0.089651406 0.09961682
000290 a8 c9 98 3b 47 29 dc bd 34 57 34 3c 14 39 0e 3d
       0.004662711 -0.107500605 0.011007119 0.034722403
0002a0 b0 05 0b 3d 11 d9 d5 3c 50 02 f5 bd a2 12 8d 3d
       0.03394097 0.026104482 -0.11963332 0.068883196
0002b0 68 ed e8 3c 78 67 5e 3d 83 25 44 3d 2a 6c 07 bd
       0.028433517 0.054297894 0.047887336 -0.033062138
0002c0 02 0c c6 3d 60 63 f3 3b fc 38 0d 3d 14 6f 4f bd
       0.09670259 0.007427618 0.034478173 -0.05064304
0002d0 bc ec d0 3d 5c 6d 0e 3d c9 c0 83 bd da 52 07 bd
       0.102014035 0.034772262 -0.06433255 -0.033037998
0002e0 12 46 80 bd 50 7c 72 3d 5c 31 83 bd 16 02 1d bd
       -0.06263365 0.059200585 -0.06405899 -0.038332067
0002f0 80 da 4b 3d 52 91 25 bd 38 79 96 3c 62 77 bc 3d
       0.049768925 -0.04042179 0.018368348 0.09202458
000300 60 00 c5 bd 3e ea b1 bd 59 97 96 bd 3e 13 bb 3d
       -0.09619212 -0.08687256 -0.07353086 0.091345295
000310 df ca 5c bd 5c 2b b7 3d cc 38 82 bd d8 d6 aa 3c
       -0.05390441 0.08943817 -0.063584894 0.020854399
000320 7a 5c a1 bd 98 4b 9a bd d8 98 b5 bc be 75 be 3d
       -0.07878967 -0.075339496 -0.022167608 0.09299801
000330 23 17 a4 bd e0 16 5f bb 9c 5a c0 bc 80 cc 25 bc
       -0.080122255 -0.0034040734 -0.023480706 -0.010119557
000340 14 ab ba bd 5e fa 92 3d c0 75 a5 3c ca a5 cd 3d
       -0.09114662 0.0717666 0.02019775 0.100413874
000350 1c 9f 97 bd e8 d5 18 bc 0a f8 55 bd 86 a9 c8 3d
       -0.074033946 -0.009328343 -0.0522385 0.09797959
000360 02 08 ab 3d 56 eb 98 3d d0 8d 5e bc 30 ca db bc
       0.08351137 0.07466762 -0.013583615 -0.026829809
000370 72 28 91 bd c4 ef 4e 3d 06 68 1c bd b0 f6 27 3c
       -0.070877925 0.050521627 -0.038185142 0.010251686
000380 6c 98 59 3d 34 35 89 3d d0 43 d4 3b 08 ea 14 3c
       0.053123876 0.06699601 0.0064778104 0.0090890005
000390 48 1e 68 3d 9d 9b 39 bd 02 89 23 bd c6 a0 c2 bd
       0.056669503 -0.04531442 -0.039925583 -0.09503321
0003a0 d8 76 7d 3d 00 aa a7 ba d8 5d 48 3c 10 83 8d bc
       0.061880916 -0.0012791753 0.012229405 -0.01727441
0003b0 ff a1 b3 bd 00 e4 7c ba cd 04 50 bd a8 55 91 3c
       -0.08771133 -0.0009647012 -0.05078583 0.01774104
0003c0 4c 1d d2 bc cc b2 9a 3d 40 d5 3b 3d bc 3e 32 3d
       -0.025648735 0.07553634 0.045857668 0.04351686
0003d0 d6 fe 80 3d 70 72 11 bc 04 e6 2d 3d dc 1d 92 3c
       0.06298606 -0.008877382 0.042455688 0.017836504
0003e0 bc 7c a0 3c 34 e0 fe bc 6a a6 cb 3d 30 e4 80 bb
       0.019590728 -0.031112768 0.0994385 -0.003933452
0003f0 08 ea 2f 3d 40 8b 3e 3c 54 68 6f bd 34 1f 4c 3d
       0.0429478 0.0116298795 -0.058449104 0.049834445

res_blocks.0.model.0.bias f4 [32]
000000 0b 50 b0 3d 57 d3 28 3d 6d d1 bd bd 9d fb 83 3d
       0.08609017 0.041217174 -0.092684604 0.06444476
000010 7b 5c 1e 3a 75 5f 0c 3d a0 1d 21 bc bb 03 cd bd
       0.00060410023 0.034270722 -0.009833723 -0.10010477
000020 45 0b 51 3d 59 c2 f1 3c 22 f0 5b bc 13 7d 34 3d
       0.051036138 0.029511617 -0.013423951 0.044064593
000030 f0 55 51 3d cf 6e 28 bc 46 19 4b 3d 16 ad 09 bd
       0.051107347 -0.010280325 0.04958465 -0.033612333
000040 f9 74 c3 bd 90 8a 83 bd 33 1b c4 3c 55 e6 ce bb
       -0.09543795 -0.06422913 0.02393875 -0.006314079
000050 0b 78 82 3d 7a 10 15 3d 88 2c 84 3d 6e d0 ee bd
       0.06370553 0.036392666 0.06453806 -0.116608486
000060 d7 8e 67 3b 25 ca 0a bc a8 7e 06 3d 4e 6c c3 3c
       0.0035332942 -0.008471047 0.032835633 0.023855355
000070 0f 8b 83 3d cb 1e 6a bd 9c 9a 2e 3d d3 99 51 3b
       0.06423008 -0.057158273 0.042627916 0.0031982556

res_blocks.0.model.2.weight f4 [32, 32, 3]
000000 c6 7e e7 bd f1 e8 23 bd d6 49 4b 3d 48 04 43 be
       -0.11303477 -0.040017072 0.049630962 -0.19044602
000010 02 f4 c6 bd bc cd 1e bd 4a 8d 53 bd dc b5 81 3d
       -0.097145095 -0.038770422 -0.051648416 0.06333515
000020 a8 66 43 3c d7 1e 09 be 8e ca a4 bd 1d 71 5f bd
       0.011926331 -0.1339067 -0.08046447 -0.054551233
000030 72 84 16 be f0 7c 2d 3c 64 67 ed 3c 98 b1 48 bd
       -0.14698961 0.010588869 0.028979965 -0.04899749
000040 db d9 9c 3d 4e e7 70 3d 49 6b b9 bd 99 d0 2a bd
       0.0765874 0.05881434 -0.09053666 -0.04170284
000050 96 48 b3 3d 18 94 08 3d fd 2c 94 3d 7e 95 46 3c
       0.08754079 0.03334436 0.07235143 0.012120603
000060 85 6f f4 3c 52 dd ab 3b e8 19 12 3d 7f 25 6e 3c
       0.029838333 0.0052448893 0.035669237 0.014535307
000070 6a f1 71 3d 53 b2 b0 3d 18 ee 13 3d d7 9e 3c bd
       0.05906812 0.08627763 0.036115736 -0.04604992
000080 e4 18 a0 bc 2f a3 86 bd dd 9b b2 3d cc c6 be 3d
       -0.019543119 -0.065740936 0.08721135 0.09315261
000090 4f 03 ee bb fa d6 82 bc 0f 60 fb bd 4a 78 af 3d
       -0.007263578 -0.01597165 -0.12274181 0.08567865
0000a0 d6 7c 14 bd 98 c5 44 bd ef 9e a7 3d 5c c0 42 bd
       -0.036251865 -0.048040003 0.08184611 -0.04754673
0000b0 36 ab b2 bd f0 9c 80 bb 1f 69 d0 bd d0 2e 89 3d
       -0.08724062 -0.0039249584 -0.101763 0.06698382
0000c0 62 70 40 bd d8 08 84 3c 98 98 f4 3c af 6a 5a bc
       -0.046982177 0.016117498 0.029857919 -0.013331099
0000d0 e0 0d 16 3d 7d 29 35 3d 41 14 51 bd 8b d3 67 3d
       0.036634326 0.04422902 -0.051044706 0.056598227
0000e0 83 33 64 bd 7b 94 af 3c e4 bb e3 bd be 58 96 3d
       -0.055713188 0.021433106 -0.11119822 0.07341145
0000f0 ee fc 4c bc 13 78 2e bd 7f f7 56 3d 93 12 a2 bc
       -0.012511475 -0.04259498 0.052482124 -0.019784248
000100 19 1b 0f 3d 4c 52 a7 3d a0 ee d6 3c 2c bb 37 3d
       0.03493795 0.08169994 0.026236832 0.044856235
000110 be 8b fb 3c 35 64 bc bd b4 0b 9c bd 5c c8 be bd
       0.030706283 -0.091988005 -0.0761942 -0.09315559
000120 52 05 d3 bc 16 b0 a2 bd 24 a8 60 3d de 56 80 bd
       -0.025759373 -0.07943742 0.05484785 -0.062665686
000130 eb af 7e 3d 1a 59 3e bd 9d 15 ba bd 44 c2 86 bd
       0.062179487 -0.046471693 -0.09086154 -0.06580022
000140 ea f9 89 3d 6c f3 82 3c 83 51 c1 3d 92 08 98 bd
       0.067371204 0.015985213 0.09439375 -0.0742351
000150 1a 43 8f 38 0f c1 34 3d 01 ed d3 bd c2 73 90 bd
       6.83127e-05 0.044129428 -0.10347939 -0.07053329
000160 c8 70 88 3d 3c 5f 5c bd e6 c2 09 3d 2a 06 23 3d
       0.06662136 -0.05380176 0.033633135 0.0398008
000170 d0 45 e4 3c ad f6 6a bd 48 a3 3c bd 94 0d 5f bd
       0.02786532 -0.057364155 -0.046054155 -0.05445631
000180 a2 3d 39 bd 22 89 76 bd 42 c7 3c 3d 14 02 86 3c
       -0.045224793 -0.060189374 0.046088465 0.016358413
000190 b5 7d 1a 3d 3d 88 2a bd 00 b1 0f bb 50 39 ca bd
       0.03771754 -0.041633833 -0.0021925569 -0.09874213
0001a0 c0 e1 1d 3c 5d 04 f7 3d b4 62 36 bb 2f c7 99 3d
       0.0096363425 0.12061379 -0.0027829828 0.075086944
0001b0 7d a6 7b 3d 23 75 b1 3d d7 83 9f 3b 45 21 bb bd
       0.061438072 0.0866492 0.0048680115 -0.09137205
0001c0 14 5e c0 bc 16 56 be bc c0 07 83 bc 20 43 c4 3b
       -0.02348236 -0.023234408 -0.015994906 0.0059894472
0001d0 76 84 40 bd 8b 67 5a 3d 94 b6 25 3d c7 7d 64 bd
       -0.047001325 0.053321403 0.040457323 -0.055784013
0001e0 63 5e 9e 3d df aa c1 bb 83 bc 24 3c 56 0e 43 3d
       0.077328466 -0.005910262 0.01005471 0.047621094
0001f0 8a da 9e bd a0 04 e0 3c 64 a3 83 3d f9 dd ea bc
       -0.07756527 0.027345955 0.06427649 -0.028670298
000200 e3 4c 2e bd e8 ef 4e 3c 56 d1 a4 bd 74 5b bd 3d
       -0.042553794 0.01263044 -0.0804774 0.09245959
000210 d6 04 7c 3d af 42 01 bd e1 2e 80 3d dc 9a 32 3d
       0.06152805 -0.031557735 0.062589414 0.043604717
000220 32 3d ba bd 5b 31 02 3d 07 d4 e9 bc 45 63 3d 3d
       -0.09093703 0.03178535 -0.028543485 0.04623725
000230 b4 86 51 bd 4a af 98 3d 30 f6 5a bc 54 a1 19 3d
       -0.051153854 0.07455309 -0.01336436 0.03750737
000240 48 ac 97 3d a7 5c 8e bd 0c ac 96 3d 69 12 79 3d
       0.07405907 -0.06951266 0.07357034 0.060808573
000250 d2 1a 0c bd 7a 96 16 bd 59 a7 98 bd 63 ea 8a bd
       -0.034205265 -0.0367646 -0.07453794 -0.06782987
000260 db e5 9a bd 69 71 29 bd 71 d0 34 bc 09 31 4e bd
       -0.07563373 -0.041367922 -0.011036024 -0.050339732
000270 76 50 2a bd b8 2c 63 3c 2b e5 fc 3d 2e 71 c6 3b
       -0.04158064 0.013865642 0.12348398 0.0060559725
000280 32 d2 53 3d dc b9 9e 3d d6 37 02 be 4e 36 af be
       0.05171413 0.077502936 -0.12716612 -0.3422112
000290 19 de 88 bd 4c 53 d6 3d 0a 3c a1 bb 91 57 81 3d
       -0.06682987 0.10465106 -0.0049204873 0.0631553
0002a0 79 9c 99 bd 71 22 b1 3d ec fb 1f 3d 58 03 3c 3c
       -0.07500548 0.08649147 0.03905861 0.011475407
0002b0 11 1e a2 bd cb 25 b3 bd 34 20 cf bd 7a f7 b4 3d
       -0.07915891 -0.08747443 -0.10113564 0.08836265
0002c0 e0 7e d4 3c 39 4a d4 bd 68 2d 98 bd b0 d1 f6 3c
       0.025939405 -0.10365719 -0.074305356 0.030129284
0002d0 b1 07 ad bc d7 9d 26 bc 88 59 28 3d a4 10 17 3d
       -0.021121832 -0.010169468 0.04110101 0.036881104
0002e0 3b f7 52 bd 8e 43 1f bd 4a a3 89 3d 12 2c 9a bd
       -0.05150531 -0.038882785 0.06720598 -0.07527937
0002f0 c6 9c c3 3d b9 80 81 3d fc 52 95 bb 68 03 31 bd
       0.095513865 0.0632338 -0.0045570116 -0.04321614
000300 e1 69 72 bd 61 22 ca bc a1 35 c6 3c 85 f0 38 3e
       -0.059183005 -0.024674596 0.024195494 0.18060501
000310 78 e9 74 3d fc e6 c3 3d 90 43 c3 3b 18 5b 04 3c
       0.059792966 0.09565541 0.005958982 0.008078359
000320 08 6c c5 bd c3 89 6b 3c 4f 54 0a bc bd bd 1b 3e
       -0.09639746 0.014376107 -0.008442952 0.15209098
000330 de b1 a5 bc f2 b2 fb bc 8c 71 11 3e c3 3f 3b bb
       -0.020226415 -0.030724976 0.14203471 -0.002857194
000340 8e ed 73 bc cd 06 8f 3c e0 da 58 3b 20 59 64 bd
       -0.01488818 0.017459298 0.0033089444 -0.05574906
000350 f6 2d b7 3d 75 f3 6c bd 5c 26 17 bd 44 cf 0f 3d
       0.08944313 -0.057849366 -0.036901817 0.035109773
000360 99 a9 c2 3d 35 1e c5 3d d2 b2 30 ba 38 11 ac bd
       0.095050044 0.09624902 -0.00067405135 -0.08401722
000370 f0 03 23 3d 79 a5 a0 3d 7a 3b 8e bc 86 c7 ca 3d
       0.039798677 0.078440614 -0.017362345 0.09901337
000380 64 ac 8f bd 97 2d c7 bd 7c 79 3b 3d 6e 31 ba 3c
       -0.07015303 -0.097254924 0.045770153 0.022728648
000390 62 6c f3 3d 04 74 7d bd f7 de 36 bd e1 b8 2c bc
       0.11885907 -0.06187822 -0.04464623 -0.010542125
0003a0 c6 b6 9a bd 51 5e 28 3d 5d c9 cc 3d 3b 20 ae bc
       -0.075543925 0.041105572 0.099993445 -0.021255603
0003b0 05 50 86 3d 8b f7 b1 bd 5e c8 79 bd 42 28 34 bd
       0.06558231 -0.08689793 -0.0609821 -0.043983705
0003c0 f4 30 39 3d 53 b8 32 bd 00 a3 2b 3d d4 c8 79 3d
       0.0452127 -0.043632817 0.041903496 0.06098254
0003d0 d8 b5 b7 bd 7b c7 c3 3d b9 67 5a 3c ea 26 87 3d
       -0.08970231 0.09559532 0.0133303935 0.06599219
0003e0 bb a5 57 3d 69 08 95 3c 0c 6a 6a 3c 22 57 c2 3b
       0.052648287 0.018192487 0.01430751 0.005930797
0003f0 0f 10 5b 3d 17 c8 30 3d 69 6b e4 3d 46 47 66 bd
       0.05348211 0.04315957 0.11153299 -0.056220315

res_blocks.0.model.2.bias f4 [32]
000000 7e 24 92 bd 7a dd 71 3d 19 c8 a7 bd e8 f1 7a bc
       -0.071358666 0.059049107 -0.081924625 -0.015316464
000010 d6 2c 74 bd e9 aa 90 bc bd 8b 66 3d 6d 4a 5e 3c
       -0.05961307 -0.017659621 0.05628561 0.013567549
000020 79 3a 91 bd 60 69 70 bc 61 6d 11 be 0a fc a1 bc
       -0.07091231 -0.014673561 -0.14201881 -0.019773502
000030 cf ca 51 bd fa da 82 bd c4 c2 b3 bc d6 5f 4e 3d
       -0.051218804 -0.06389423 -0.021943457 0.050384365
000040 4f bf 85 bd 67 d1 bf bd fe aa da 3d ba 2b d1 bc
       -0.0653063 -0.09366112 0.106771454 -0.025533546
000050 49 39 86 3c 7a bb 61 3d c0 d0 a3 3d 18 fa 1c 3d
       0.016384738 0.055110432 0.079988 0.038324445
000060 79 33 a2 bd 9e 24 d2 3d e0 da 9e 3d d4 87 85 bc
       -0.07919974 0.102608904 0.07756591 -0.01630012
000070 06 e6 0d 3d f7 96 af 3c 13 02 66 bd f4 32 cf bc
       0.034643196 0.02143429 -0.056154322 -0.025292851

res_blocks.1.model.0.weight f4 [32, 32, 3]
000000 4d 38 9c bc e5 1e 91 bc 18 4a 84 bc 63 34 b3 bd
       -0.019069815 -0.017714927 -0.016148612 -0.08750226
000010 d7 8a d1 bc 55 31 bb 3c d0 47 1c 3c 81 b4 6b 3d
       -0.0255789 0.022850672 0.009538606 0.05754519
000020 ad 3c c9 3d 67 c9 1d bd 16 93 fa bc 07 10 d1 3d
       0.09826026 -0.03852215 -0.030587714 0.10208135
000030 b4 f7 1b bd 45 dd 95 bc a4 32 ed 3d 3d e2 17 be
       -0.038078025 -0.018293986 0.115819246 -0.14832397
000040 f9 da af bc f0 52 0e be bb b7 05 be 63 5d 04 3d
       -0.021466719 -0.13898826 -0.13058369 0.032315623
000050 72 6b 12 3d 92 b6 06 ba 02 c5 71 3d 93 04 13 bd
       0.035747 -0.00051388994 0.059025772 -0.035893034
000060 e6 a4 b2 3d 29 fa f5 3d dc ad b9 3d 9f 74 e6 3c
       0.08722858 0.12010605 0.09066364 0.028131781
000070 01 3a df bd fc 1d d8 bc fa 47 98 bd 68 21 0b be
       -0.10899735 -0.026381485 -0.074356034 -0.13586962
000080 46 69 ea bd 02 12 ca 3d 29 5d 47 3d 85 43 ba 3d
       -0.114458606 0.09866716 0.04867283 0.090949096
000090 8b 2b 6a 3d be a8 1f 3d 52 f3 fc bc 0c ef a5 3d
       0.057170432 0.038979284 -0.030877743 0.08102235
0000a0 13 50 1c 3d b2 62 c2 bc 1c 4b 12 bd 6b ae 83 bc
       0.038162302 -0.023728702 -0.03571616 -0.01607438
0000b0 5f 18 27 bd 6c 03 2c bd ef 91 00 be 6f 52 72 3b
       -0.040794726 -0.04199545 -0.12555669 0.0036975404
0000c0 77 69 d0 3d 9f 10 f2 bc ac 42 32 3d 10 cb c3 bd
       0.10176366 -0.029548941 0.043520615 -0.095602155
0000d0 a6 12 be bd 5b 6c 7a 3a e7 28 96 bd 5c 75 67 3d
       -0.09280901 0.00095528894 -0.0733202 0.056508407
0000e0 f4 06 8d 3d 88 2d 44 3d 1e 1c 3f 3d 53 35 ff bc
       0.06886092 0.047894984 0.046657674 -0.031153357
0000f0 7b bd 49 bd 9e 21 a2 bd fd aa b0 3c 8a 56 c2 bd
       -0.04925297 -0.07916568 0.021565909 -0.09489162
000100 09 5e 9f 3c c9 3e f6 bc b8 d0 0e bd b7 47 1b bd
       0.01945402 -0.030059235 -0.03486702 -0.03791019
000110 57 79 d8 bd b2 31 3e 3d ea 4b ef bc 0a 30 e4 bd
       -0.10570019 0.046434112 -0.029211003 -0.11141975
000120 4e 7e 54 3d 19 60 e7 3d fb 9c 90 ba dc 92 66 3d
       0.051878266 0.11297626 -0.0011033112 0.0562924
000130 8f 42 05 3d cf 50 5b 3d 2d 18 40 3b 3b 66 27 3d
       0.03253418 0.053543862 0.0029311285 0.04086898
000140 8d c7 af 3c 84 04 90 bd 14 72 27 bd 3e 2d be bc
       0.021457458 -0.07032111 -0.040880278 -0.023214933
000150 04 da 8e bd e3 fe cb bd e8 9c c8 3c c9 b7 83 bd
       -0.06975177 -0.09960725 0.024488881 -0.064315386
000160 08 c9 51 bd 66 8d 98 3d 7b 8c de 3c 86 62 93 3c
       -0.05121711 0.074488446 0.027166596 0.017991316
000170 69 0e a8 ba b5 32 f8 3d 9e 10 19 bc 30 19 94 bd
       -0.0012821677 0.121190466 -0.009342341 -0.07231367
000180 4f 92 84 bd 70 3c 86 bd 17 a8 a1 3b 31 ef 5c 3c
       -0.06473219 -0.06554496 0.004933368 0.013484762
000190 7e bd b8 3d df a9 bc bd 7e 14 6c bd d0 df c1 3a
       0.09020518 -0.09212088 -0.05763673 0.0014791433
0001a0 50 a1 91 3c 31 99 4e 3d ee 6f 3f 3d c0 70 cc 3b
       0.017777115 0.050439063 0.046737604 0.006239027
0001b0 0f 2b 2b bd 18 a1 0e 3c e0 3b 9a 3d f8 1a 7d 3d
       -0.04178911 0.0087054 0.075309515 0.061793298
0001c0 ee 74 85 3d 95 98 b2 3c eb 15 53 bd 37 7a a0 bc
       0.06516443 0.021801272 -0.051534574 -0.019589527
0001d0 f7 47 b8 3d 47 7a dc bd 97 c8 ac 3d e0 1b 5b 3d
       0.08998101 -0.1076551 0.08436697 0.05349338
0001e0 1c 12 76 bd fd f9 80 3c b3 0d be 3d e2 d4 dc 3c
       -0.060075864 0.015744204 0.09279957 0.02695698
0001f0 12 5f ab 3c 3e 83 a9 3c e7 e9 2d 3d c9 69 00 bd
       0.020919356 0.020692464 0.042459395 -0.031350885
000200 01 49 91 bd c7 8d ac 3d 30 17 ac bd 1d 02 12 bd
       -0.070940025 0.084254794 -0.0840286 -0.035646547
000210 05 a6 ec bc 0d 99 03 3d f3 bd 93 bc 6a 01 de bc
       -0.028887758 0.032128382 -0.01803491 -0.027100284
000220 03 ab bc 3d 92 06 8f 3d 90 43 86 bd 0e 55 b7 bc
       0.092123054 0.06983675 -0.06555855 -0.022379424
000230 32 c9 69 bd 53 b9 24 bd 22 9b 60 bd 8d d6 da bc
       -0.05707664 -0.0402158 -0.054835446 -0.026713634
000240 8b 4d fb bb 18 13 c0 bb 81 64 cb 3d 2b 1e 73 bd
       -0.007669156 -0.005861651 0.09931279 -0.059354942
000250 04 46 8d bd 3d 6f 69 3d 2a 1b 19 bc 8f 77 9c bc
       -0.0689812 0.05699085 -0.009344855 -0.019099979
000260 58 50 b5 bd b6 72 d8 bd 53 86 84 bc 0c 8a c4 3b
       -0.08853215 -0.105687544 -0.016177332 0.005997902
000270 cc eb b6 3d fd 50 eb 3c 4c 66 21 bd e8 36 91 bc
       0.089316934 0.028725142 -0.0394042 -0.017726377
000280 86 e5 b6 bc b5 a1 8f 3d 87 5d ca 3c 6f cf b3 bd
       -0.022326242 0.07013265 0.0247028 -0.08779799
000290 a9 13 8c bc 16 98 f5 3b fb f9 6d bd 8a 41 56 3d
       -0.017099218 0.0074949367 -0.058099728 0.052308597
0002a0 f4 58 a6 bd 62 0d a2 3d 73 68 04 3d 25 4e 8d bc
       -0.08122435 0.07912709 0.032326173 -0.017249176
0002b0 2a df cd 3b df 67 0b bd 59 34 d0 bd 7f 9f da 3c
       0.0062827067 -0.034034606 -0.101662345 0.026687382
0002c0 65 ec b8 3d 3b 82 db bc 77 7e dd bc 9b 23 e9 bd
       0.09029464 -0.026795497 -0.027037842 -0.11383744
0002d0 18 b1 9f bd b9 b2 d0 3c 6f d6 af bd f5 0b a4 3d
       -0.0779745 0.025475847 -0.08585822 0.08010093
0002e0 ce cd 93 bd ed 37 43 3d 4e 55 ba 3c 99 e3 ac 3d
       -0.072169885 0.047660757 0.022745755 0.08441848
0002f0 63 14 a9 bd c6 d9 1c 3d 0f a0 d3 bc 9f b1 0b bd
       -0.082558416 0.038293622 -0.025833158 -0.03410494
000300 1e 18 f9 3c fe 2f ae bc 9a 58 2a 3d 06 92 76 3d
       0.030407008 -0.021263119 0.041588403 0.060197853
000310 57 2e f3 3c 99 8e c9 3d a9 d3 81 3d cd 28 40 bd
       0.029685182 0.098416515 0.06339199 -0.04691391
000320 94 9b 74 bb 85 7d 0f bd 21 f6 69 3d 75 f1 bd 3d
       -0.0037324177 -0.035031814 0.057119492 0.0927457
000330 1a e1 fb 3c c4 d4 7e 3d bf c4 40 bd 35 f0 58 3d
       0.030746985 0.062214628 -0.04706263 0.052963454
000340 1a 63 f3 bc 95 b7 60 bc 60 40 64 3c 0b 22 ab bd
       -0.029710341 -0.013715644 0.013931364 -0.083561026
000350 5a fe 8e bd ff 91 cd 3d ed a7 59 bd b1 6f 94 3d
       -0.069821075 0.10037612 -0.053138662 0.07247866
000360 f3 10 8e 3b 6b 8f 54 bd 87 28 16 3d b4 2d fe 3c
       0.0043355166 -0.051894587 0.036659744 0.031027652
000370 58 7b 3e 3d 27 74 9d bd 8e 0a 47 bd ae 83 9c 3c
       0.04650435 -0.0768817 -0.04859405 0.019105759
000380 3f 70 7f 3d cc 7e 9d bd 62 fd 73 bd b8 c9 1c 3d
       0.062362906 -0.076902 -0.059567817 0.03827831
000390 ea a7 88 3c 71 ba 8f 3c c4 22 72 bd 69 69 32 3d
       0.01668163 0.017544957 -0.059115186 0.04355756
0003a0 31 c4 41 bc 48 c2 b2 3d 98 94 03 3d c2 4e 5c 3c
       -0.011826561 0.087284625 0.032124132 0.013446512
0003b0 22 73 38 3d c0 62 9c bd aa fe 97 bd 20 43 23 bd
       0.045031674 -0.076360226 -0.0742162 -0.039858937
0003c0 8b 3a bd 3d 48 ce b8 3d b4 76 56 bd 1c db aa bd
       0.09239682 0.0902372 -0.052359298 -0.08342573
0003d0 4c ef c7 bd 0c f5 a4 bd c5 cb af bd 14 f1 5b bc
       -0.09762439 -0.080545515 -0.08583788 -0.013424177
0003e0 78 d8 c3 bd e1 18 a3 3d e4 cc d0 bd 1c 75 1d 3d
       -0.095627725 0.0796373 -0.1019533 0.038441762
0003f0 f6 26 4e 3d 33 04 c0 bd c0 be 9c 3c 11 5d cc bc
       0.050330125 -0.09375801 0.019133925 -0.024946721

res_blocks.1.model.0.bias f4 [32]
000000 67 82 72 3c 09 4d bb bd 7a 07 89 bc 29 25 d9 bc
       0.014801598 -0.09145553 -0.016727198 -0.026506977
000010 a9 38 b1 3d bf b1 36 bd 58 94 04 3d bb 5d 3b bd
       0.08653385 -0.044603106 0.032368034 -0.045743685
000020 b9 13 33 3d 62 a2 16 bc 1e 96 04 3d 96 83 81 bd
       0.04371998 -0.0091939885 0.032369725 -0.06323926
000030 17 71 19 bd 54 5b e6 3c 2c 3a 1d bd 52 cc 43 3c
       -0.037461367 0.02811972 -0.038385555 0.011950569
000040 0a 14 c6 bd da 29 5a bc 13 ab ab 3d 29 3f 87 3d
       -0.09671791 -0.013315642 0.08382239 0.06603844
000050 a0 61 2f bc f1 bb 0d bd 65 96 9a 3d 24 79 84 3d
       -0.010704428 -0.034603063 0.07548217 0.06468418
000060 c7 05 df bc b0 2e 96 bc 93 79 06 bd 2f ea 1c bd
       -0.027224435 -0.01833281 -0.032830786 -0.038309272
000070 5e 3f 82 3d d9 fe 94 3d 62 c9 8e bd 92 c2 40 3d
       0.063597426 0.07275171 -0.069720045 0.047060557

res_blocks.1.model.2.weight f4 [32, 32, 3]
000000 b0 87 7e bd e4 2c 2f bd 5b 45 57 3d 4d 1c 4c bd
       -0.06214112 -0.04276742 0.052556377 -0.049831677
000010 11 e0 a6 3d 76 c3 f7 ba ed 85 c6 3d 69 1a 17 bd
       0.08148206 -0.0018902856 0.09693513 -0.03689042
000020 f1 07 77 3d 46 b0 8d bd 04 43 7a 3d 79 d8 e4 bc
       0.060310308 -0.06918387 0.061099067 -0.027935253
000030 9f 53 c8 bd a0 97 66 bd e7 f6 e7 bc 9d 03 c5 bc
       -0.097815745 -0.056296945 -0.028315974 -0.024049575
000040 6e 2a b5 bd 9f 36 6e 3d 75 b6 3d 3d 8d 82 ff 3c
       -0.088459834 0.05815756 0.046316583 0.031190181
000050 31 5c 27 3d 73 5b 9a bd fc ea bf 3d f6 a1 a4 bd
       0.040859405 -0.07536974 0.093709916 -0.08038704
000060 3c 7c a0 3d c4 7e 16 bc e7 30 87 bd f8 d5 cd bd
       0.07836196 -0.009185497 -0.06601124 -0.10050577
000070 45 9d 42 3d 78 61 b2 3b 06 7c 9a 3d 11 27 61 3d
       0.047513265 0.005443748 0.07543187 0.054968897
000080 20 88 c6 3d 14 25 9a bd 4a b9 38 bd a0 3a 06 3d
       0.096939325 -0.07526603 -0.04509858 0.032770753
000090 b7 03 f9 3c 42 b6 1e bd f6 46 9d 3d aa 41 08 bd
       0.03039728 -0.038748033 0.0767955 -0.033265747
0000a0 4d b7 70 bd 9d 3e cd 3c 6a 07 53 bd ed 19 33 3d
       -0.05876856 0.02505427 -0.051520742 0.043725897
0000b0 99 dd d8 3c bd 47 92 3d de 9b 58 bd e8 98 c8 bd
       0.026472853 0.07142589 -0.05288302 -0.097947896
0000c0 0b a8 a7 bd 35 a9 87 bd 28 c9 ad 3d 6b 65 3c 3d
       -0.081863485 -0.066240706 0.08485633 0.045995157
0000d0 0e 2e de bd 7e 7c 9b bb af e6 9b bd 2b 04 90 3d
       -0.10848628 -0.0047450652 -0.07612359 0.07032045
0000e0 40 ac 59 bc b9 b4 33 3c 49 36 03 3c 5e 8e 9f bd
       -0.0132856965 0.010968381 0.008008548 -0.07790826
0000f0 59 38 be bd d4 37 a6 bc 48 61 a0 3d 66 82 6d bc
       -0.09288091 -0.020290293 0.07831055 -0.014496421
000100 ad 72 28 bd 7d e4 a4 3d 0a 89 01 be 45 6e 57 3d
       -0.04112499 0.08051393 -0.12649933 0.052595396
000110 4b ed e4 bd 1b fb d3 bd 6b 8a 12 be 56 f2 ee bd
       -0.111780725 -0.10350629 -0.14310615 -0.11667316
000120 3c e6 e8 3d 6b 53 ed bd aa 08 b8 bd 4a 54 a7 3d
       0.11372039 -0.11588176 -0.089860275 0.08170374
000130 d6 4c 9f bd 4c 75 90 3d 9a ab 32 bd ad b3 ce 3d
       -0.07778327 0.070536226 -0.043620683 0.10092864
000140 f0 e0 95 3b a9 10 e6 bd 79 4c f7 bd 81 90 f6 bd
       0.004573934 -0.112336464 -0.12075133 -0.12039281
000150 b4 66 86 3d 70 a8 d1 3b c8 d0 99 bd 8a 52 73 bd
       0.06562558 0.006398253 -0.07510525 -0.059404887
000160 09 ff 39 bd 96 5c 24 3d 08 e6 4f 3d 97 19 8a bd
       -0.045409236 0.04012736 0.050756484 -0.06743162
000170 f7 0a b5 3c e5 1f e2 3c 8f 7e 14 bb 74 c0 9d bd
       0.022099955 0.0276031 -0.0022658443 -0.07702723
000180 46 12 9d 3d 8e 04 57 bd a4 c2 8f 3d ce 7c 6e bd
       0.07669501 -0.052494578 0.07019547 -0.05822449
000190 5e 29 90 bd ea 71 59 bc e2 75 52 bd 0d 4f 95 bb
       -0.0703914 -0.013271788 -0.051381953 -0.0045565427
0001a0 69 6b 85 3d b9 37 ec 3c 59 e3 7b bd 09 42 3f 3d
       0.065146275 0.028835164 -0.061496112 0.046693835
0001b0 90 07 d2 bd 52 3a a8 bd 42 42 b7 3a 4e d8 76 3d
       -0.10255349 -0.08214249 0.0013981538 0.060264878
0001c0 f0 d3 3b 3b 03 50 8e bd 79 d3 36 3d 9e 08 a4 bd
       0.002866026 -0.06948855 0.04463527 -0.08009456
0001d0 3f 4c 92 3d b0 4a b3 3c 60 0f fb 3b 74 af 0b bd
       0.07143449 0.0218862 0.007661745 -0.034102872
0001e0 35 fa cd 3c ed 9e b5 bd b8 fe 9d bd 05 b4 e7 bc
       0.025143722 -0.08868203 -0.07714599 -0.028284082
0001f0 83 e6 58 bd dc b3 ce bd 58 f7 f9 3d 6a e2 ea 3d
       -0.052954208 -0.10092899 0.1220538 0.11468966
000200 9a 22 f6 3d a8 d1 f2 3c 14 63 c8 3d 98 b0 2a bc
       0.120183185 0.029640988 0.09784523 -0.01041808
000210 d5 2a be 3c 2c aa f5 bc 94 c2 63 3d 97 0b 15 bd
       0.023213783 -0.02998837 0.055605486 -0.036388006
000220 21 3d af bd 49 cc a3 3d a4 ef 6d 3d a7 3e e8 bd
       -0.08556581 0.07997949 0.058089867 -0.11340075
000230 9b 05 0d 3d c8 35 72 3d ee 4e 8c 3d 2b 12 87 bd
       0.034429174 0.05913332 0.06850992 -0.06595262
000240 65 7a 48 bd ca 26 46 3d 2a 86 04 3d 23 56 8d 3d
       -0.04894485 0.048376836 0.03235451 0.06901195
000250 d2 a9 7e 3c 56 44 e3 bc f3 ab 5d 3d b4 26 ec bd
       0.015543418 -0.027742546 0.05411906 -0.115308195
000260 d6 bb 81 3d 73 0d 6b 3d cf 7d 9c 3d b3 49 9d 3d
       0.06334655 0.057385873 0.076411836 0.07680073
000270 fa 8f be bd 74 bc 74 3d 56 88 39 bd d5 fa a1 3d
       -0.09304805 0.059750035 -0.045296036 0.079091705
000280 af 27 aa bd 17 81 f9 bc 6c 8b 9a 3c 0a 5f ed 3b
       -0.0830835 -0.030457063 0.01886531 0.0072439956
000290 c1 23 3c bd 60 a4 12 bd ed 89 26 3d 2d 6d c2 3b
       -0.045932535 -0.03580129 0.04065888 0.005933425
0002a0 78 be cf bd 78 93 da bc 46 af b4 bd f8 61 06 bc
       -0.10143751 -0.026681647 -0.08822493 -0.0082020685
0002b0 b4 47 b5 3c 18 b0 6c 3d 25 bb 9a bd fa 23 ee bd
       0.022128917 0.057785124 -0.07555226 -0.11627956
0002c0 a0 f2 d4 bd 73 9e 1e bd ea 4c b1 3d 95 2d 22 bd
       -0.103978395 -0.038725328 0.08657248 -0.03959425
0002d0 57 4d 67 bd 6e 35 8e 3c 73 63 a6 bd bf 98 cd bd
       -0.05647024 0.017359462 -0.08124437 -0.100389
0002e0 91 07 87 bc d9 4d 96 bd 9c 72 1b bc 5c 03 8c 3d
       -0.0164831 -0.07339067 -0.009487774 0.06836578
0002f0 c0 93 8e 3d cb 55 c8 3c 75 d2 7e bd 6e 82 0d 3d
       0.06961775 0.024454972 -0.062212426 0.034548216
000300 67 65 34 3c 5c 58 58 bd 2c 5d 48 bd 05 40 e3 bd
       0.011010504 -0.05281864 -0.04891698 -0.11096195
000310 d1 81 bc bd b5 cb 9d 3d d5 93 bc 3d 3d bb 14 bd
       -0.09204448 0.0770487 0.09207884 -0.036311377
000320 f7 f5 aa bc 47 bb a7 3d 8a ad c1 3d a7 f7 87 bd
       -0.020869238 0.08190017 0.09456928 -0.06639033
000330 ca 7a d6 3d 7e 7f 33 3c ed a9 c5 3d ec 01 ed bc
       0.10472639 0.0109556895 0.096515514 -0.02893158
000340 97 8a bb 3d cf e5 87 3d 9d ad 42 3d 02 1b 4c bd
       0.09157293 0.066356294 0.04752885 -0.049830444
000350 f6 82 4e bd a0 0d 3f bd 5e a4 3c bd 0c 09 b3 bc
       -0.050417863 -0.046643853 -0.04605519 -0.0218549
000360 28 ea b5 3d b6 8a 94 3b c1 10 97 3c 80 08 5d 3d
       0.088825524 0.004533137 0.018440606 0.053963184
000370 ea 65 77 3c a3 e4 40 3d fb d9 0a 3c 73 5b 46 3c
       0.015099982 0.047093045 0.008474822 0.012106764
000380 33 fb 25 bd 14 68 8f bd f2 ef a9 bd b8 7d 60 3c
       -0.040522765 -0.07002273 -0.08297719 0.013701849
000390 f0 6a 7a bd 91 c8 7c 3a 0d 6e 62 3d 46 db e0 3c
       -0.06113714 0.0009642924 0.055280734 0.027448308
0003a0 5a cb 10 3e 17 7e 90 3d e6 e9 a5 bd aa 64 09 bc
       0.14140072 0.070553 -0.08101253 -0.008385817
0003b0 10 58 4d bd ab 98 97 bd c7 50 b3 3d f5 b3 b8 bc
       -0.05013281 -0.07402166 0.087556414 -0.022546748
0003c0 24 17 5d bd a0 03 44 bd 09 6b df bc 4c 91 16 3d
       -0.053977147 -0.04785502 -0.027272718 0.03675966
0003d0 33 7a ca bb 6b 17 89 3b b6 51 84 3d 6a 05 19 3c
       -0.006179118 0.0041837 0.064608976 0.00933967
0003e0 2a f4 7a 3d fe 31 7d 3d 90 ed 92 bd a7 bc 89 bd
       0.06126801 0.061815254 -0.07174218 -0.06725436
0003f0 c0 0d 32 bc c8 d0 20 bd 88 af 5b 3d a6 cc 73 bc
       -0.010867536 -0.03926161 0.053634197 -0.014880335

res_blocks.1.model.2.bias f4 [32]
000000 35 34 aa 3d a9 67 2d bd 80 c8 30 3d db e2 74 3d
       0.08310739 -0.042335186 0.04315996 0.05978666
000010 12 71 3b 3c bd 5c a9 3d 0b af 85 bd 59 a9 26 bc
       0.011440532 0.082696415 -0.065275274 -0.010172212
000020 82 f9 8f 3a 3b 31 3e 3d 4e e8 06 be c3 65 91 3c
       0.0010984393 0.04643367 -0.13174555 0.01774872
000030 08 bc 82 3c be e1 6b bd 49 d6 96 3d be fd a6 3c
       0.0159588 -0.05758833 0.073650904 0.020384666
000040 82 31 f2 bc 2b 70 e2 bc 09 6a cf b9 87 01 86 3d
       -0.029564623 -0.027641376 -0.0003956112 0.0654326
000050 e1 8a 13 bd c1 a0 ae 3d e4 5d 29 3c 01 19 67 bd
       -0.036021117 0.08526755 0.010337327 -0.05642033
000060 da 0f f2 bb 9b 48 70 3c a2 53 8a bd e1 54 93 bc
       -0.0073871436 0.014665748 -0.06754233 -0.01798481
000070 05 57 bd bd 73 d1 4d bd 26 93 a9 3d 37 99 f8 bc
       -0.09245113 -0.050248574 0.082800195 -0.030346496

res_blocks.2.model.0.weight f4 [32, 32, 3]
000000 b6 c8 62 3b 0c 76 94 bd 9d 27 ce bd 3b 3e 41 bd
       0.0034604496 -0.07249078 -0.100661494 -0.04717849
000010 04 50 8c 3c 5f 95 02 be fd e7 7a bd d2 35 91 3d
       0.017127998 -0.12752293 -0.061256398 0.070903435
000020 d0 23 61 bc cd c2 7a bd 48 0f e3 bd e9 f8 2e be
       -0.0137414485 -0.061220933 -0.11086899 -0.17087139
000030 4c d2 25 3d 7a 22 f2 3d 44 c6 c7 3c 52 ef 51 bd
       0.040483758 0.11822982 0.024386533 -0.051253624
000040 a4 75 81 3d 77 24 92 3d ab f3 17 bc 18 27 16 3e
       0.06321266 0.07135861 -0.009274404 0.1466335
000050 c1 bf fc 3b e4 bc c1 bd 08 c8 65 bd 7b 82 a1 3c
       0.0077132885 -0.09459856 -0.056098968 0.019715538
000060 bb a2 dc 3d f1 f7 6b 3c ae 16 00 3c 7c 6b ba 3c
       0.10773226 0.014402376 0.007817907 0.02275633
000070 a3 ae a2 3d 1f 36 90 3c 3b 7d b5 3c 90 1e b1 bd
       0.079434656 0.017603932 0.022154441 -0.086484075
000080 01 8d d8 bd bf 6d 0c bd 5f ce 81 3c 16 c3 08 bd
       -0.10573769 -0.03428435 0.015845476 -0.033389173
000090 e6 ec c3 bd a4 19 10 3d de dc f4 3c 5e cb 42 3e
       -0.09566669 0.035180703 0.029890474 0.19022891
0000a0 07 53 70 3d 65 33 45 3e 63 de f5 bd 30 8f 20 bd
       0.05867293 0.19257887 -0.120053075 -0.039199054
0000b0 9e 46 dc bd c8 17 21 bd a6 39 f6 bc bd f3 be bd
       -0.10755657 -0.03932932 -0.030056786 -0.09323833
0000c0 74 c4 0d 3e d0 96 6f 3d 1b 0e 3b bd 74 a7 d8 3c
       0.13844472 0.058493435 -0.04566775 0.026447035
0000d0 e0 51 92 bb ae 59 c5 3c 83 3e 08 be 2e 26 74 bd
       -0.0044653267 0.024090614 -0.13305096 -0.059606723
0000e0 b2 49 56 be b7 f0 d3 3c 21 9a b5 3b aa c2 0e bc
       -0.2092655 0.025871618 0.0055420552 -0.008713404
0000f0 2a 96 19 3c ca 3f 8d bc 55 c1 fd bc 5a 9f 03 be
       0.009374181 -0.017242331 -0.030975977 -0.12853757
000100 2d 61 f7 bd f9 90 b6 bc d7 34 60 3c e7 79 07 be
       -0.12079082 -0.022285925 0.013684473 -0.13230096
000110 ec 17 45 bd 46 64 51 b9 6d 49 c3 3c cf 5d a2 bd
       -0.048118517 -0.00019969148 0.023838723 -0.07928049
000120 c0 3e b3 3c 35 90 9b 3d 61 32 e2 3b 67 a5 1a be
       0.021880507 0.07595865 0.0069029783 -0.15102158
000130 0a 83 f2 bd 3d 68 4f bc e6 ff 33 bd b7 94 8b 3d
       -0.118414 -0.01265913 -0.043945216 0.068154745
000140 8b c0 45 bc ee 84 1f bc 3b 4c 27 bd f8 3f 26 bd
       -0.012069832 -0.009736283 -0.040844183 -0.04058835
000150 c4 45 af bb 62 0a 9a 3d 85 30 bf 3d 18 08 d0 ba
       -0.005348893 0.075215116 0.09335426 -0.0015871553
000160 ee fb c1 3b 0e 6a b8 3d 59 ba 69 3c a5 36 2d bd
       0.005919925 0.09004603 0.01426562 -0.04228844
000170 4d 8e 5f 3d 66 b0 9b bc 7f 6b 8b bd d7 60 05 3e
       0.054579068 -0.019005012 -0.06807613 0.13025223
000180 75 15 b0 bd 20 8b d9 3c 0b bf c5 bd 8e 56 18 bd
       -0.085978426 0.026555598 -0.09655579 -0.03719192
000190 86 21 1e 3c 71 3a 03 3d 1b 9d 05 3c bf 11 7d bd
       0.009651547 0.032038156 0.008155133 -0.061784502
0001a0 a1 f8 3b bd 9f 2d ee 3c de f2 4b 3d 2f a4 a6 3c
       -0.045891408 0.029074488 0.049792163 0.02034196
0001b0 c7 54 f2 3d 4c cf e1 3c 6b a7 78 3d d3 00 66 bd
       0.11832576 0.027564667 0.060706537 -0.05615313
0001c0 4d 05 d4 bd ab e5 91 bc 92 7d 66 bc a6 3b 73 3a
       -0.103525735 -0.01780971 -0.014068024 0.00092786027
0001d0 85 d2 92 3d 15 d2 08 3c a8 24 24 bd 4f c7 e1 bd
       0.0716906 0.008350869 -0.04007402 -0.11024343
0001e0 52 ca 91 3b b8 d0 84 3d d2 3e 4e bc f7 7c 41 3d
       0.0044491673 0.064851224 -0.01258822 0.047238316
0001f0 d6 96 13 bd db ee 6b bd ff f5 e4 bc 39 39 2d 3d
       -0.03603252 -0.057600837 -0.027949331 0.0422909
000200 67 43 91 3c a6 04 c1 3d 68 19 af 3d 93 1c a2 bd
       0.017732335 0.09424715 0.08549768 -0.07915606
000210 0f 23 bc bb 90 f3 a2 bd 45 d8 5d bd e9 30 81 3d
       -0.005741484 -0.07956612 -0.05416133 0.06308157
000220 b7 dc ad bd 67 52 a8 bd 96 bb 34 bd 55 4d 88 bd
       -0.08489364 -0.08218842 -0.04412421 -0.06655375
000230 cc 3d a9 3d dd bd 2e 3b 2a db 4d bd e9 43 21 3d
       0.0826374 0.002666346 -0.05025784 0.039371405
000240 a4 d0 33 3d 37 3f 16 bd 74 26 09 3d 67 75 49 3d
       0.043900147 -0.03668138 0.033483937 0.04918423
000250 57 c6 92 bd cf b5 99 bd e0 01 ae bd 20 df 54 3d
       -0.071667366 -0.0750538 -0.084964514 0.0519706
000260 c6 7c ad 3c 6b b2 49 3d d4 62 34 bc 29 08 b6 bd
       0.02117766 0.04924242 -0.011009891 -0.08888275
000270 eb de 61 bd 6b 68 a5 3d e0 7b b4 bc 7d 1e 0a 3d
       -0.05514423 0.08076557 -0.022031724 0.033720482
000280 ab 21 aa bd eb a9 e9 bd c0 08 70 bd df 37 c5 bd
       -0.08307203 -0.114093624 -0.058602095 -0.09629797
000290 47 25 36 3c 84 74 c5 3c a2 04 41 bd 7a 45 7d 3b
       0.011117286 0.02410341 -0.04712356 0.0038646148
0002a0 8c 1a 39 bd bb f6 d9 3c 93 eb b4 3d 4c 0d 98 bd
       -0.045191333 0.026606908 0.08833995 -0.07424411
0002b0 56 80 18 3d ec bc 87 3d 30 98 c5 3d ec c6 71 bc
       0.037231766 0.06627831 0.09648168 -0.014756899
0002c0 b5 b6 a7 3d 5d 80 cf bb b7 79 ae bd 2d 4a 99 bd
       0.081891455 -0.006332441 -0.08519309 -0.07484851
0002d0 84 d8 18 3d a3 fa 1a 3d 12 fb 9f bd 7c 3f 80 bd
       0.03731586 0.037836682 -0.0781156 -0.06262109
0002e0 82 9a 93 bc 84 62 9d 3d fa 66 b2 bd aa ac b2 3d
       -0.018018011 0.07684806 -0.087110475 0.08724339
0002f0 1d dc 70 3d b1 55 94 3d 72 72 ac 3d c8 c2 fb bc
       0.058803666 0.07242907 0.08420266 -0.030732527
000300 46 63 5d be 89 35 2f be dc b1 f7 bc 21 cb 4d bd
       -0.21619901 -0.17110266 -0.030236177 -0.050242547
000310 50 54 4b bd 82 85 a8 3c 71 ba bb bb 7f a8 5d 3d
       -0.049640954 0.020571474 -0.0057290127 0.05411577
000320 d9 bb 83 bd 68 c3 58 3d a6 ba 9e bd 04 ba 5c 3d
       -0.064323135 0.05292073 -0.07750444 0.053888336
000330 0b bb 8f 3d 4b 24 b2 bc d2 c7 a2 3c 4a 94 e5 bc
       0.070180975 -0.021745821 0.019870672 -0.028024811
000340 6f 94 bf 3d a4 19 4c bd 28 c2 80 bc 9b de 9b 3d
       0.09354483 -0.04982914 -0.01571758 0.07610818
000350 14 de 16 bc eb 76 1c 3d 63 ef a0 bd 31 cf 6e bd
       -0.009208221 0.038199347 -0.078581594 -0.058303062
000360 ec 42 52 3a 20 11 57 3c b5 58 bb 3c 2e 92 28 bd
       0.00080208364 0.0131266415 0.022869447 -0.041155033
000370 50 b7 37 bd 2c 38 e1 3d aa 54 94 3d 93 a2 a8 bc
       -0.044852555 0.10997042 0.07242711 -0.020585334
000380 db 2d be bd 4a 0d a0 ba 19 06 69 bd 9d 43 6c bd
       -0.0928609 -0.0012210992 -0.05689058 -0.05768167
000390 6d 81 91 3c 01 5c 04 bd 0e f7 92 3d 04 48 ad bc
       0.01776191 -0.032314304 0.07176028 -0.021152504
0003a0 ae f4 18 3d d9 3b 90 bd 05 ef 9f bd 7a 68 32 bd
       0.03734272 -0.07042665 -0.07809261 -0.043556668
0003b0 e6 4a 8f 3d a7 4b 96 bd 1a f7 22 bc c2 55 9c bb
       0.069967076 -0.07338648 -0.009946609 -0.0047709653
0003c0 9f 72 1c 3e 01 1e ac 3b 77 2b ac bb f2 7b 03 3d
       0.152781 0.0052526 -0.005254205 0.032100625
0003d0 7a c0 1c bd 0b 17 18 bd 92 fe 4b 3d 79 cd 43 bd
       -0.038269497 -0.03713135 0.049803324 -0.047803376
0003e0 ad 99 32 3d 19 05 3c bb 12 fe cb 3b 24 91 a5 3c
       0.043603588 -0.0028689562 0.006225356 0.02021081
0003f0 e0 0d 72 3d ac 07 5f 3d 35 4f 66 bd c4 88 32 3d
       0.059095263 0.054450676 -0.05622788 0.04358746

res_blocks.2.model.0.bias f4 [32]
000000 df 10 4a 3d de 3a c6 3c bc e6 44 3d 73 a6 23 bd
       0.049332496 0.024197992 0.048071608 -0.03995366
000010 49 8f c3 bc 49 d9 a6 3d 0e 44 2b bd 28 1c bd bd
       -0.023872035 0.081469126 -0.04181295 -0.09233886
000020 93 fb a3 bd 66 b9 cc bd f1 44 db 3b c3 ce 2b bc
       -0.08006968 -0.099962994 0.006691568 -0.010486308
000030 84 fc a3 bd 9b a0 1b be 11 72 65 3d bc 2f 96 bd
       -0.08007148 -0.15197985 0.056016985 -0.07333323
000040 66 26 b6 3d 9c 6a b7 bd 95 61 ab bd b8 c7 3a bc
       0.08894043 -0.08955881 -0.08368222 -0.011400156
000050 fd 39 02 be e7 32 a8 3d fb 1e 5d 3d 28 aa ad bc
       -0.12717433 0.08212834 0.053984623 -0.0211993
000060 6f a2 b4 bd db c2 14 3d 4d a2 1a 3d 1f 39 9f 3d
       -0.08820044 0.03631864 0.03775244 0.07774567
000070 f5 31 80 3c ee 2f 9d 3d 5e 8c 66 bd ab a2 30 3b
       0.015648821 0.076751575 -0.05628621 0.0026952426
